UW Madison/CS540/hw7/outputs/model_best.pth.tar (torch, 608831 bytes, 10 tensors)

conv1.weight f4 [6, 3, 5, 5]
0	0xbd9a86d4	-0.07545248
1	0xbdcf31dd	-0.101169325
2	0xbf07934c	-0.5295913
3	0xbf00d8ab	-0.5033061
4	0xbe239331	-0.15974118
5	0x3adabab4	0.0016687722
6	0xbe0f35a1	-0.13985302
7	0xbe58ac55	-0.2115949
8	0xbeb760c8	-0.35816026
9	0xbdefb79d	-0.11704943
10	0xbd889050	-0.066681504
11	0xbe2bf783	-0.16793637
12	0xbe4ed651	-0.20198943
13	0xbe42f0ef	-0.19037221
14	0xbe2e5951	-0.17026259
15	0xbd8170ce	-0.06320344
16	0xbdc66792	-0.09687723
17	0x3e0672ab	0.1312968
18	0xbc558329	-0.013031759
19	0xbdf2809c	-0.118409365
20	0xbc798104	-0.015228514
21	0x3c1fab4a	0.009745428
22	0x3d7f9e81	0.06240702
23	0x3e64f923	0.22360663
24	0xbd2e85a4	-0.04260792
25	0x3dd912d1	0.10599292
26	0x3e389641	0.18026067
27	0xbe73c6d4	-0.23806316
28	0xbe3e445d	-0.18580766
29	0x3db04175	0.08606235
30	0x3c6f4e73	0.014606106
31	0x3e0d7409	0.13813795
32	0xbdfa61ef	-0.122257106
33	0xbe077a1e	-0.13230178
34	0xbd20e788	-0.039283305
35	0xbe0b976c	-0.13631982
36	0xbe130a96	-0.14359507
37	0x3e0b39e3	0.13596301
38	0x3d9f5c3c	0.07781264
39	0x3c2cea15	0.010553856
40	0xbe03a84c	-0.12857169
41	0xbe71e1b3	-0.23621254
42	0x3d9ebaa5	0.07750443
43	0xbcf84ef6	-0.030311089
44	0xbe2ccb4c	-0.16874427
45	0xbe6a32b7	-0.22870909
46	0xbdeb25c9	-0.11481816
47	0x3d7fa7bf	0.062415835
48	0x3b5efa7f	0.003402382
49	0xbde72993	-0.112872265
50	0x3eac3b24	0.3363887
51	0x3ec15d8c	0.37766683
52	0x3e22863b	0.15871517
53	0x3e1c826f	0.15284131
54	0x3ecaa532	0.3957916
55	0x3e20ae71	0.15691544
56	0x3e7d8e5f	0.24761342
57	0x3da897d2	0.082320824
58	0x3d819a3e	0.063282475
59	0x3e21dacc	0.1580612
60	0x3e323deb	0.17406432
61	0x3e06793c	0.13132185
62	0x3dfc0110	0.1230489
63	0x3e52213b	0.20520489
64	0x3e0f14dc	0.13972801
65	0x3c748d9a	0.014926339
66	0xbc9c1341	-0.01905215
67	0x3e4d02d9	0.20020618
68	0x3e7c9bc6	0.24668798
69	0x3e0939b5	0.1340092
70	0xbd518425	-0.051151413
71	0xbd435aa3	-0.04769386
72	0x3e354a58	0.17704141
73	0x3e898bb1	0.2686439
74	0x3e07e1e6	0.13269767
75	0xbe301dd8	-0.17198884
76	0x3e993b86	0.29928225
77	0xbe39af53	-0.18133287
78	0x3e41f554	0.18941242
79	0x3e1462d9	0.14490832
80	0xbeefcad1	-0.46834424
81	0x3ecdd792	0.4020353
82	0xbd37c28a	-0.04486326
83	0xbcf962bc	-0.030442588
84	0x3e0da1da	0.13831273
85	0xbef8f759	-0.4862621
86	0x3dd60941	0.10450984
87	0xbee30268	-0.44337773
88	0xbd9a95dc	-0.07548115
89	0xbd5a8e05	-0.053358097
90	0xbea75100	-0.32678986
91	0x3e514c3f	0.20439242
92	0xbe7689dd	-0.24076028
93	0x3d81b68e	0.06333648
94	0x3db29378	0.08719534
95	0xbe8741f3	-0.26417503
96	0x3e9ae20b	0.30250582
97	0xbd95376a	-0.0728596
98	0x3db3cb25	0.08778981
99	0x3e788f2b	0.24273364
100	0x3d172a94	0.03690584
101	0x3ef935c6	0.48673838
102	0xbe819edc	-0.25316513
103	0xbdb76e94	-0.08956638
104	0xbd75ef47	-0.060042646
105	0xbde31d84	-0.11089614
106	0x3eebbc53	0.46042117
107	0xbe6cdee8	-0.23131907
108	0xbd3351eb	-0.043779295
109	0x3da72143	0.08160641
110	0xbe33ec38	-0.17570579
111	0x3f27bff6	0.65527284
112	0xbe45c955	-0.19315083
113	0x3dad1cca	0.08452757
114	0x3e2fae44	0.17156321
115	0xbe7706a3	-0.24123625
116	0x3ef74445	0.48294273
117	0xbe280802	-0.16409305
118	0xbd828d1c	-0.06374571
119	0x3d47a99f	0.048745748
120	0xbdeed4ae	-0.11661659
121	0x3ea802ba	0.3281458
122	0xbe898f6e	-0.2686724
123	0xbdb484cc	-0.088143915
124	0xbe2d0435	-0.16896136
125	0xbe1105f0	-0.14162421
126	0x3e99efca	0.30065757
127	0xbec739b5	-0.38911214
128	0xbe942fa4	-0.28942597
129	0xbe31b448	-0.17353928
130	0xbdc2a15c	-0.09503433
131	0x3f0a1656	0.5394033
132	0xbe9ca2a0	-0.30592823
133	0xbe585b27	-0.21128522
134	0x3d079742	0.033103235
135	0xbd57e7c6	-0.05271127
136	0x3f24bb4d	0.643483
137	0xbdf3e5e4	-0.119090825
138	0xbda095b3	-0.07841053
139	0x3dc2c025	0.09509305
140	0x3d751410	0.059833586
141	0x3f2ae258	0.66751623
142	0xbc110881	-0.008852125
143	0xbe1510f2	-0.14557245
144	0xbe1f5673	-0.15560322
145	0xbe15b071	-0.14618088
146	0x3ee91fb3	0.45531997
147	0xbe395061	-0.18097068
148	0xbe818e32	-0.253038
149	0xbe4ccf91	-0.20001055
150	0xbe4c5e49	-0.19957842
151	0xbe49d6be	-0.19710824
152	0xbe3a7f7c	-0.18212694
153	0x3c0d871f	0.008638172
154	0xbe39e005	-0.18151863
155	0xbe4b6447	-0.19862472
156	0x3d240545	0.040044088
157	0xbddd0ab7	-0.10793059
158	0xbd40fbd7	-0.047115173
159	0xbe23df19	-0.16003074
160	0xbd61165f	-0.054952975
161	0xbd959b17	-0.07304972
162	0xbe982fb1	-0.29723886
163	0xbe6e4435	-0.23268206
164	0x3b259c36	0.002527011
165	0xbc987bdf	-0.018613754
166	0xbd9184d0	-0.0710541
167	0xbd9445fc	-0.07239911
168	0xbe0938f5	-0.13400634
169	0xbca29e0d	-0.019850755
170	0xbc3720a1	-0.011177213
171	0x3d0979d3	0.033563446
172	0x3ea0f731	0.31438592
173	0x3e04cc14	0.12968475
174	0xbe039db4	-0.12853128
175	0x3e7a098d	0.24417706
176	0x3e0b69dc	0.13614601
177	0x3d730797	0.05933341
178	0x3ea5e026	0.32397574
179	0xba36f012	-0.0006978522
180	0x3e15a608	0.14614117
181	0x3e176d25	0.14787729
182	0x3e80abf2	0.25131184
183	0x3e4aa7e2	0.19790605
184	0x3e3e3451	0.18574645
185	0x3e5dc767	0.21658097
186	0x3dd9ade7	0.10628872
187	0xbd5bc0ac	-0.053650543
188	0xbd88c90e	-0.06678973
189	0x3e9ce5ef	0.30644175
190	0x3e4f38af	0.20236467
191	0x3e297c16	0.16551241
192	0xbdcfcfcf	-0.10147058
193	0x3d7a0ef6	0.061049424
194	0x3d6134ce	0.054982
195	0xbe129c8f	-0.14317535
196	0xbc480264	-0.012207601
197	0x3e621d5b	0.2208151
198	0xbc0d1a78	-0.008612268
199	0x3c78ffcd	0.015197706
200	0xbd57e5a6	-0.052709244
201	0x3c7beaae	0.015375776
202	0xbe076589	-0.13222326
203	0x3d4b6ff8	0.04966733
204	0xbd9cd575	-0.07657901
205	0xbd9a0564	-0.075205594
206	0xbe0e6b51	-0.13908125
207	0x3d43a2de	0.047762744
208	0x3cf5343d	0.029932136
209	0xbc99c79b	-0.018771937
210	0xbdff03eb	-0.12451919
211	0xbe44f969	-0.19235767
212	0xbe9b3649	-0.30314854
213	0xbe835e56	-0.2565791
214	0x3c9a4aa6	0.018834423
215	0xbd52357f	-0.05132055
216	0xbe25b6bf	-0.16182993
217	0xbe67aa2b	-0.22623508
218	0xb98f3b49	-0.00027319256
219	0xbdedd5de	-0.116130576
220	0xbdf2cc51	-0.118553765
221	0x3e50ee8d	0.204035
222	0x3e94eb49	0.29085758
223	0x3dc20530	0.09473646
224	0xbdf8f149	-0.121553965
225	0x3e257abc	0.161601
226	0xbcc58bb8	-0.024114475
227	0xbc3bd94e	-0.011465384
228	0xbdbf04e7	-0.09327107
229	0xbd9d7aa0	-0.076894045
230	0x3cd852d8	0.02640669
231	0x3dc05279	0.093907304
232	0x3d2c4cff	0.042065617
233	0x3df98686	0.121838614
234	0x3db26452	0.08710541
235	0xbe320460	-0.17384481
236	0xbc835d74	-0.016035773
237	0xbd650e69	-0.055921946
238	0x3cbcb0a8	0.023033455
239	0x3e07f849	0.13278307
240	0xbdffb5bb	-0.12485834
241	0x3b22a144	0.002481536
242	0xbce2d6ad	-0.027690256
243	0x3de71232	0.11282767
244	0x3e59c933	0.21268158
245	0xbe915ff5	-0.28393522
246	0x3cade8c1	0.02122915
247	0xbe046f58	-0.129331
248	0x3d62deee	0.055388384
249	0x3d903743	0.0704179
250	0xbcb6be01	-0.022307398
251	0xbc4cd646	-0.012502259
252	0x3d21dfa3	0.039519917
253	0xbe10a111	-0.14123942
254	0xbe2eb38d	-0.1706068
255	0xbdb498c6	-0.08818202

conv1.bias f4 [6]
0	0x3ca17f61	0.01971406
1	0xbe32af55	-0.17449696
2	0x3f7938a9	0.9735208
3	0xbead537b	-0.33852753
4	0x3f1cc46d	0.6123722
5	0xbc7aac91	-0.015299932

conv2.weight f4 [16, 6, 5, 5]
0	0xbd1d7fdf	-0.038452026
1	0x3b946944	0.00452915
2	0xbde248eb	-0.11049064
3	0xbd9dfb16	-0.077139065
4	0xbe266ebc	-0.1625318
5	0xbcc68e62	-0.024237815
6	0x3d15bda5	0.036557812
7	0xbc4d02e1	-0.012512893
8	0x3cea080a	0.028568286
9	0x3c935b8f	0.017987994
10	0xbc2316c2	-0.009954156
11	0xbc047011	-0.008083359
12	0x3ab0f13d	0.0013499629
13	0xbb98b36d	-0.004660061
14	0xbcd6785c	-0.026180439
15	0x3dd18f2d	0.10232387
16	0x3ddd1468	0.10794908
17	0x3d0f9bd7	0.03506073
18	0xbc2fc626	-0.010728395
19	0xbe137e23	-0.14403586
20	0xbc701531	-0.01465349
21	0x3d65a166	0.056062125
22	0xbc388559	-0.011262261
23	0x3ccda6ca	0.025103945
24	0xbd499488	-0.049213916
25	0xbc379528	-0.011204995
26	0xbd127bed	-0.035762716
27	0xbd242097	-0.040070143
28	0xbd821b4a	-0.06352861
29	0xbd645e00	-0.055753708
30	0x3d281894	0.041039065
31	0x3cdc1915	0.026867429
32	0xbd824605	-0.063610114
33	0xbdf2c83b	-0.11854597
34	0xbe16bc17	-0.14720188
35	0xbcc7c0c8	-0.024383917
36	0xbd646cc5	-0.055767793
37	0xbdff804e	-0.12475644
38	0xbd67d30a	-0.056597747
39	0xbe0ed090	-0.13946748
40	0xbdd44396	-0.103644535
41	0xbdfc4867	-0.12318497
42	0xbc8c4f4c	-0.017127655
43	0xbdc07479	-0.093972154
44	0xbe53cf48	-0.2068454
45	0xbcdd841c	-0.027040534
46	0xbd86036a	-0.0654362
47	0xbd97baa1	-0.074086435
48	0xbdd95969	-0.10612757
49	0xbe5ca79e	-0.21548316
50	0x3ccfce15	0.025366822
51	0x3d5a184b	0.053245824
52	0x3b9f7e08	0.004867319
53	0x3bb6a2f3	0.0055736243
54	0xbd2bbdc8	-0.041929036
55	0x3db42492	0.08796038
56	0x3d139c98	0.03603801
57	0x3caa73f4	0.020807244
58	0x3d921210	0.071323514
59	0x3ce2243f	0.027605174
60	0x3ccf1992	0.025280748
61	0x3dccb853	0.099960946
62	0x3e0f5a27	0.13999234
63	0x3d54a24d	0.051912595
64	0x3c8bec2b	0.017080387
65	0x3d583c48	0.052791864
66	0x3dfa6411	0.122261174
67	0x3d47849d	0.048710454
68	0x3cc1dad3	0.023663914
69	0xbd556501	-0.052098278
70	0x3db18b46	0.086691424
71	0xbbb730fd	-0.0055905567
72	0xbc37a6e4	-0.011209223
73	0xbd7db49d	-0.061939824
74	0xb98cd34d	-0.00026860312
75	0x3df5f510	0.120096326
76	0xbcc24501	-0.023714544
77	0xbcf0c444	-0.029390462
78	0xbd7df286	-0.061998866
79	0xbd8a3ee5	-0.067502774
80	0x3d117e98	0.03552112
81	0x3d0401d4	0.032228306
82	0x3d555d78	0.052091092
83	0x3da41dda	0.08013506
84	0xbdb3ef5e	-0.0878589
85	0x3db31ec8	0.087461054
86	0x3d40233d	0.046908606
87	0x3cb54f26	0.022132467
88	0x3d0594f3	0.032612752
89	0xbc932ba0	-0.017965138
90	0x3c9de463	0.019273942
91	0x3d0f37c5	0.034965295
92	0xbd86b752	-0.06577934
93	0xbbf49cc1	-0.0074649756
94	0xbe7ac64d	-0.24489708
95	0xbdb54e0f	-0.08852779
96	0x3d101ff6	0.03518673
97	0xbe058a01	-0.13040926
98	0xbe02d40f	-0.12776206
99	0xbe564495	-0.209246
100	0x3e09ddc5	0.13463505
101	0x3d5d2304	0.05398847
102	0x3e0e8ffd	0.13922115
103	0x3da1a93d	0.07893608
104	0xbac5b8a2	-0.0015084932
105	0x3d23be7a	0.039976574
106	0xbcc6e128	-0.024277285
107	0x3cb8ee2c	0.022574507
108	0xbd8744f8	-0.066049516
109	0x3db1cbb1	0.08681429
110	0x3d470d44	0.048596635
111	0xbc9b89d3	-0.018986618
112	0x3d0bda25	0.034143586
113	0x3c6192c9	0.013767906
114	0x3de3c92a	0.111223534
115	0x3e16621e	0.14685866
116	0x3c6cc50e	0.014451278
117	0xbd186cf5	-0.037213285
118	0x3ca2b785	0.0198629
119	0x3e3237fd	0.1740417
120	0x3e2ecc64	0.17070156
121	0x3daabe04	0.08337024
122	0x3e12d65f	0.14339589
123	0x3e380769	0.17971577
124	0x3e3be17c	0.18347734
125	0xbb5bb229	-0.003352294
126	0x3beaea4e	0.0071690446
127	0x3d8a911c	0.06765959
128	0x3ca49de0	0.020094812
129	0xbc15aa6b	-0.009134869
130	0x3d09d3eb	0.033649366
131	0x3d8f0e9b	0.06985208
132	0x3d632eef	0.05546468
133	0x3d399b02	0.045313843
134	0xbc8ba372	-0.01704571
135	0x3cd14ade	0.025548395
136	0x3c855576	0.016276103
137	0x3dc51671	0.09623421
138	0x3d472315	0.04861744
139	0x3d867710	0.06565678
140	0xbd1ad7a1	-0.037803296
141	0x3d4bb241	0.049730543
142	0xbbabd7c1	-0.0052442257
143	0x3d5001d6	0.050783
144	0xbd3c5325	-0.04597773
145	0x3bf9aa61	0.0076191877
146	0xbd20ceb7	-0.03925964
147	0x3c84adcf	0.01619616
148	0xbd80188d	-0.06254683
149	0xbd5c1cf5	-0.053738553
150	0x3e22b38d	0.15888806
151	0x3de0a8d1	0.10969699
152	0x3de0387f	0.10948276
153	0x3df4cd1b	0.11953183
154	0x3dceac5f	0.10091471
155	0xbc2ec91b	-0.0106680645
156	0x3e1e6e6a	0.15471807
157	0x3d63371c	0.05547248
158	0x3e13d5fb	0.14437096
159	0x3e22de88	0.15905201
160	0xbc6926d2	-0.014230447
161	0xbba3a978	-0.0049945675
162	0x3d91fc81	0.071282394
163	0x3ceb43c6	0.02871884
164	0xbd270a70	-0.04078144
165	0xbdb826a7	-0.08991747
166	0xbdf8b5a7	-0.121440224
167	0xbe759f19	-0.23986472
168	0xbe382b5e	-0.17985293
169	0xbe561923	-0.20908026
170	0xbe1b0348	-0.1513797
171	0xbe6fa42b	-0.23402469
172	0xbea3a552	-0.31962067
173	0xbe885b49	-0.26632145
174	0xbe6354e1	-0.22200347
175	0xbbe63a54	-0.007025996
176	0x3c9d3130	0.019188493
177	0x3cf7b02b	0.03023537
178	0x3d8cb2b1	0.0687002
179	0xbc8025ed	-0.015643084
180	0xbd53a634	-0.051672176
181	0xbdc639a6	-0.09678964
182	0xbd3a2d45	-0.04545333
183	0x3d70e2f4	0.05881019
184	0xbd48d0fd	-0.04902743
185	0x3c71fb12	0.0147693325
186	0xbd1fdedc	-0.039030895
187	0xbbc73b6e	-0.0060800826
188	0xbdb1b249	-0.08676583
189	0x3d85a508	0.06525618
190	0xbd7f311e	-0.0623027
191	0x3c93190a	0.017956275
192	0xbd7ea0c8	-0.06216505
193	0xbd5f051f	-0.054448243
194	0xbd0d08c7	-0.0344322
195	0xbd2fb5bf	-0.042897936
196	0xbc055e84	-0.00814021
197	0xbd5c79f8	-0.053827256
198	0xbdbed038	-0.09317058
199	0xbe16753b	-0.14693157
200	0x3d5ca715	0.05387028
201	0x3dc4c9d4	0.09608808
202	0xbca48d47	-0.020086898
203	0x3d304a16	0.043039404
204	0x3c8da222	0.017289225
205	0x3d90bd28	0.07067329
206	0x3dfe1916	0.124071285
207	0xbc87637e	-0.016526934
208	0x3d76ad11	0.060223643
209	0x3e3f9220	0.18708086
210	0x3d214805	0.039375324
211	0x3dc6e837	0.0971226
212	0xba03b32a	-0.0005023951
213	0x3db62c82	0.08895208
214	0xbd3d3e3a	-0.046201922
215	0x3d6c863a	0.057745196
216	0x3cc7aa4b	0.024373194
217	0x3d95752d	0.0729774
218	0x3d96f54b	0.07371005
219	0x3de948ff	0.11390876
220	0x3d9c25be	0.07624386
221	0x3d6659c4	0.05623795
222	0x3dd64850	0.10463011
223	0x3ce70f49	0.02820553
224	0x3e194279	0.14966764
225	0xbdaf74b3	-0.085671805
226	0xbc857db6	-0.016295295
227	0xbd19da1c	-0.03756152
228	0x3a06d405	0.00051432877
229	0x3d356e83	0.044294845
230	0xbd37236d	-0.04471152
231	0xbd96bbce	-0.0736004
232	0x3c48d1f1	0.012257085
233	0xbc5878a1	-0.013212354
234	0xbc48696b	-0.012232165
235	0xbdec8e24	-0.11550549
236	0x3d33e0cb	0.04391555
237	0x3d3a7e97	0.04553088
238	0xbc30a872	-0.010782348
239	0xbdef0267	-0.1167038
240	0xbc282cdc	-0.010264602
241	0xbdbc80eb	-0.09204277
242	0xbd6cf2eb	-0.057848852
243	0xbd1c3a02	-0.038141258
244	0xbda5761e	-0.0807917
245	0xbc4243b8	-0.011856966
246	0xbd725f17	-0.059172716
247	0xbd18b358	-0.03728041
248	0xbdb7a1cd	-0.08966408
249	0xbd03a5ea	-0.03214065
250	0x3e09f2ab	0.13471477
251	0x3e34d57d	0.17659564
252	0x3d35f58c	0.044423625
253	0x3ddb22c0	0.106999874
254	0x3daa2ce2	0.08309342
255	0xbc4448e5	-0.01198027

conv2.bias f4 [16]
0	0x3f3d77be	0.7401084
1	0x3d3c91e2	0.046037562
2	0xbe8ff1bd	-0.2811412
3	0x3eca3763	0.39495382
4	0xbd099875	-0.03359266
5	0x3d4b33e2	0.049610026
6	0xbf8c5005	-1.096192
7	0x3e4d25c0	0.20033932
8	0xbe8c2920	-0.27375126
9	0x3da0a8cb	0.07844695
10	0xbd902284	-0.07037833
11	0xbe62add0	-0.22136617
12	0xbdb96310	-0.09052098
13	0x3d99199c	0.07475588
14	0x3e6acad5	0.22928937
15	0xbe5aae79	-0.21355619

fc1.weight f4 [256, 400]
0	0xbd1a5888	-0.037682086
1	0x3c695a3a	0.014242703
2	0xbb8d6cb8	-0.004315939
3	0xbcd1cf02	-0.025611404
4	0xbc1591f6	-0.009129038
5	0x3c81e484	0.015856035
6	0x3d31a502	0.043370254
7	0xbbc9777c	-0.006148277
8	0x3cd93458	0.026514217
9	0x3d1e0b0b	0.03858475
10	0x3ca8d815	0.020610848
11	0xbad8c1aa	-0.0016537209
12	0x3cfe2598	0.031023785
13	0x3d867a4e	0.065662965
14	0x3b98ecef	0.0046669166
15	0x3d550b68	0.05201283
16	0x3d2a59af	0.041589435
17	0xbcd73bc2	-0.026273612
18	0x3ce5449d	0.027986819
19	0x3d70bf5b	0.05877624
20	0x3bbb8d74	0.0057236496
21	0x3c925848	0.017864361
22	0x3bc10428	0.005890388
23	0x3d7e17a8	0.06203428
24	0x3d0eccad	0.034863163
25	0xbd0d74d8	-0.03453526
26	0x3d278df9	0.04090688
27	0x3cbb7a83	0.022885567
28	0x3d76e33f	0.060275313
29	0x3b15c9af	0.0022855808
30	0x3cc62d43	0.024191504
31	0x3d25a35f	0.040439006
32	0x3cf99110	0.030464679
33	0x3ce447b0	0.027866215
34	0x3bc0fe0e	0.0058896607
35	0xbcc518ef	-0.02405974
36	0x3cbba2bb	0.022904744
37	0x3c3bdc3a	0.01146608
38	0x3d16579b	0.03670464
39	0xbd0cd2c9	-0.034380708
40	0x3d46d932	0.048546977
41	0xbc3b6511	-0.01143767
42	0x3d2b4bd6	0.04182037
43	0x3d8d90fb	0.069124185
44	0xbd1c734c	-0.038195893
45	0x3d080d1c	0.033215627
46	0xbcbdf2ab	-0.023187002
47	0x3c74d592	0.014943497
48	0x3d39a812	0.0453263
49	0xbc968c1d	-0.018377358
50	0x3c8b9b78	0.017041907
51	0xbd0b1e01	-0.03396416
52	0xbc9943e1	-0.018709125
53	0xbcf74ffb	-0.030189505
54	0xbca531ab	-0.020165285
55	0xbaa25a02	-0.0012386444
56	0x3c44a06b	0.012001137
57	0xbc44b9b5	-0.012007167
58	0x3af32d44	0.0018552919
59	0xbd523d7d	-0.05132817
60	0x3b645d41	0.0034845623
61	0xba4d681e	-0.0007835644
62	0x3b80c200	0.0039293766
63	0xbc2e7c5b	-0.010649766
64	0x3d212a49	0.039346967
65	0xbcd5ecbc	-0.02611386
66	0x3c2e6c7b	0.010645981
67	0xbc0b1659	-0.008489215
68	0xbd11157c	-0.03542088
69	0x3c9e0252	0.019288216
70	0xbd9a48c8	-0.07533413
71	0xbd3afd43	-0.045651685
72	0xbd038fba	-0.03211949
73	0xbce79107	-0.028267397
74	0x3cd4f1f1	0.025994273
75	0x3d86051c	0.06543943
76	0xbc1769b3	-0.009241509
77	0x3cc28286	0.023743879
78	0xbc4a20b7	-0.012336901
79	0x3c8fcee0	0.0175547
80	0x3d6ba02b	0.057525795
81	0xbd05f05c	-0.032699928
82	0x3d479e1c	0.04873477
83	0x3cc39840	0.02387631
84	0x3ca3f288	0.020013109
85	0xbbc266f0	-0.0059326813
86	0x3c7d28dd	0.015451637
87	0xbd0820bc	-0.033234343
88	0x39098514	0.00013114914
89	0xbc2d344c	-0.010571551
90	0xbc22a883	-0.009927872
91	0xbd18be0e	-0.037290625
92	0x3cd6e92f	0.026234237
93	0x3bb4d22f	0.00551822
94	0x3dae898c	0.08522329
95	0xbce6d340	-0.028176904
96	0x3d673c06	0.056453727
97	0x3d26aeda	0.040694095
98	0x3d92b607	0.07163625
99	0x3e09f6b1	0.13473012
100	0xbd6ee6ac	-0.058325455
101	0xbc817813	-0.015804326
102	0xbd092ecb	-0.03349189
103	0xbd25f862	-0.04052008
104	0x3ca9038d	0.020631576
105	0xbca757dc	-0.020427637
106	0xbc3df927	-0.011595047
107	0x3c95c7ec	0.018283807
108	0x3cc908c2	0.024540309
109	0x3c8ff3ee	0.01757237
110	0xbcb85ee5	-0.022506187
111	0xbd737997	-0.05944213
112	0xbd6f03e8	-0.058353335
113	0x3bae0a14	0.00531126
114	0xbc2715ae	-0.01019804
115	0xbd330a53	-0.043711018
116	0x3c23817c	0.009979602
117	0x3d0211f9	0.03175542
118	0x3c8cc9ca	0.017186064
119	0xbc7d02ae	-0.015442533
120	0xbbdbff97	-0.0067138183
121	0xbd310acf	-0.0432232
122	0x3c0e3b97	0.0086811995
123	0xbd57fc26	-0.052730702
124	0x3ca5f19a	0.020256806
125	0xbc67f37d	-0.014157173
126	0xbb0a752c	-0.0021126969
127	0xbd112d0e	-0.035443358
128	0xbcc676c6	-0.024226557
129	0xbb8a3671	-0.0042179157
130	0xbd20cb8f	-0.03925663
131	0x3d07c14f	0.033143338
132	0x3cdf9aa5	0.02729542
133	0xbd7c0d86	-0.061536334
134	0xbcf0c957	-0.029392881
135	0xbcc9ce91	-0.024634631
136	0x3d120225	0.035646576
137	0xbbdee737	-0.0068024653
138	0x3cbd7767	0.023128225
139	0xbc178cd6	-0.0092498865
140	0xbd405436	-0.04695531
141	0x3cbc8763	0.023013776
142	0xbcace9eb	-0.021107635
143	0x3d83f141	0.064425
144	0x3d8d3163	0.068941854
145	0xbcbf16e7	-0.02332635
146	0x39fa316f	0.00047720547
147	0x3d82764f	0.06370222
148	0x3d361743	0.044455778
149	0x3d950bb1	0.072776206
150	0xb94bd685	-0.00019439503
151	0xbd02a5e8	-0.0318965
152	0xbb8bcf43	-0.004266651
153	0xbd150f46	-0.03639152
154	0x3ce09a80	0.027417421
155	0xbd13ea41	-0.036112074
156	0xbacbe946	-0.0015557192
157	0xbcc5327b	-0.024071923
158	0xbbb40959	-0.0054942784
159	0xbc946dbe	-0.018118735
160	0xbc54339a	-0.012951756
161	0xbd498c62	-0.049206145
162	0xbd692806	-0.056922935
163	0xbd31c772	-0.043403096
164	0xbd6aeb93	-0.057353567
165	0xbd93a57b	-0.07209297
166	0xbc01dfc6	-0.007926887
167	0xbd872228	-0.06598312
168	0xbd800759	-0.062514015
169	0xbd1c4109	-0.03814796
170	0x3c80894d	0.01569047
171	0xbc13bd3d	-0.009017286
172	0xbd133091	-0.03593499
173	0xbd200fa2	-0.03907741
174	0x3d100d43	0.035168897
175	0xbb5d3eee	-0.0033759433
176	0xbc5dfccb	-0.01354904
177	0xbca383e8	-0.019960359
178	0x3c55ff1f	0.013061314
179	0x3b44ae14	0.0030010985
180	0xbbdd23db	-0.006748659
181	0x3d1f45b4	0.038884833
182	0x3d7241f1	0.059144918
183	0x3cb871d5	0.022515217
184	0x3cbfbda0	0.02340585
185	0x3bdc95a9	0.006731708
186	0xbc8a3e46	-0.016875397
187	0x3bd2f62d	0.006438038
188	0x3cf8a843	0.030353671
189	0xbca8f9a5	-0.020626852
190	0x3b59386d	0.0033145205
191	0xbc95c380	-0.018281698
192	0xbd34eaf7	-0.044169392
193	0x3c39aaf0	0.011332259
194	0x3d32e93d	0.043679465
195	0x3b8aef0b	0.004239922
196	0x3d072a5c	0.03299938
197	0x3bbe5887	0.005808893
198	0x3c8d7709	0.017268674
199	0x3d36a4f0	0.04459089
200	0x3d8e2183	0.069399856
201	0x3d8eacc0	0.06966543
202	0x3b96d3bb	0.004602877
203	0xba1181e3	-0.00055506657
204	0x3d45cf6b	0.048293512
205	0xbbe36492	-0.006939479
206	0x3d31498e	0.043283038
207	0x3c0fd142	0.008777918
208	0x3ce876c2	0.02837694
209	0x3d35e3cf	0.04440671
210	0x3b6943e9	0.0035593456
211	0x3cebd581	0.02878833
212	0xbbe8c11a	-0.0071030976
213	0x3c8c47f4	0.017124154
214	0xba36f257	-0.00069788605
215	0xbd3aae26	-0.045576237
216	0xbd8aee43	-0.06783726
217	0x3c8fff6e	0.017577853
218	0xbd281b13	-0.041041445
219	0x3b4d2645	0.0031303328
220	0x3d09a8bd	0.033608187
221	0xbc10705c	-0.008815851
222	0xbd415218	-0.04719743
223	0xbb49138f	-0.0030681824
224	0xbce754a2	-0.028238598
225	0xbd182e57	-0.037153568
226	0xbce24109	-0.027618902
227	0x3d34ea03	0.044168483
228	0xbd2633e3	-0.040576827
229	0xbd407a39	-0.04699156
230	0x3c86f5cf	0.016474633
231	0x3d470094	0.048584536
232	0x3dc3e97b	0.09566017
233	0x3d163117	0.03666791
234	0xbc9c482a	-0.01907738
235	0x3d0e4e8a	0.03474287
236	0x3d7ffd50	0.062497437
237	0x3d97ba2a	0.07408555
238	0x3c8bf0bb	0.017082563
239	0xbc842422	-0.01613051
240	0x3cc6e8ad	0.02428087
241	0x3d5c8fbd	0.053848017
242	0x3d8d66ef	0.06904399
243	0x3c790212	0.0151982475
244	0x3c75477e	0.014970658
245	0x3d72153c	0.059102282
246	0x3def1ccb	0.11675414
247	0x3d20ac7a	0.039226986
248	0x3dcf2904	0.10115245
249	0x3a8b0b17	0.0010608163
250	0xbd78cb9e	-0.06074106
251	0xbd2d5fc0	-0.042327642
252	0x3d4ee302	0.05050946
253	0xbd006a7b	-0.031351548
254	0xbcd88f55	-0.026435534
255	0xbd52e938	-0.051491946

fc1.bias f4 [256]
0	0x3d86e62d	0.06586871
1	0x3c9762e1	0.018479766
2	0x3c94d613	0.018168485
3	0xbd1f876a	-0.0389475
4	0xbcc7b76b	-0.024379453
5	0x3d0eca43	0.03486086
6	0xbd75bd53	-0.059995007
7	0x3d7cebd4	0.06174834
8	0xbc84c0c4	-0.016205199
9	0xbd2cb3dc	-0.042163715
10	0x3d719b22	0.058985837
11	0x3d50bfb2	0.050964065
12	0xbc50d7e8	-0.012746789
13	0x3bb6961b	0.005572093
14	0x3b38b5b8	0.0028184485
15	0xbc472274	-0.01215421
16	0x3d5ac944	0.053414598
17	0x3c62ec20	0.013850242
18	0x3cd38bbf	0.025823472
19	0xbc2071ce	-0.009792758
20	0x3cb6e2c9	0.022324936
21	0x3d2808f9	0.041024182
22	0x3cf6a4c2	0.03010786
23	0xbdc3f993	-0.09569087
24	0x3d9abab0	0.07555139
25	0x3d58a988	0.052896053
26	0xbd00c7ca	-0.031440534
27	0x3c1692b1	0.009190247
28	0xbcdcfb65	-0.026975343
29	0xbc1c6a0d	-0.009546769
30	0x3d1a5296	0.037676416
31	0x3c3c7357	0.011502109
32	0xba548ef9	-0.0008108463
33	0x3c785d1d	0.015158919
34	0xbc5c79fc	-0.013456818
35	0xbd02ae8a	-0.031904735
36	0xbc51f547	-0.012814826
37	0xbd190597	-0.037358847
38	0x3d1b0654	0.03784783
39	0x3ce673d6	0.028131407
40	0xbb40a12a	-0.0029392936
41	0x3a996d2c	0.0011705509
42	0x3d6dd39d	0.05806314
43	0x3d747dff	0.05969047
44	0xbc5b238a	-0.013375172
45	0xbd447e67	-0.04797211
46	0x3cbaa8b6	0.022785526
47	0x3d23a30a	0.039950408
48	0x3a42d9d6	0.0007432973
49	0xbbea306d	-0.007146886
50	0x3cede1ea	0.029038388
51	0x3d557289	0.052111182
52	0xbd1a7a29	-0.037714157
53	0x3ba7679a	0.005108786
54	0xbc6c1634	-0.0144095905
55	0xbc8ace63	-0.016944116
56	0xbd1e76eb	-0.038687628
57	0xbc5a1aa3	-0.013312015
58	0xbdbd7f4f	-0.09252798
59	0x3c0751f9	0.00825929
60	0x396d1ea1	0.00022613491
61	0x3d4ca64b	0.049963277
62	0xbe09c0a3	-0.13452391
63	0x3d732aaf	0.059366878
64	0x3d0be649	0.034155164
65	0xbdbcdc55	-0.092217125
66	0x3db4f39c	0.08835527
67	0x3d415ad9	0.04720578
68	0xbb2eb097	-0.0026655549
69	0xbcdac2dd	-0.026704246
70	0x3c29fd3a	0.010375315
71	0x3cfde482	0.03099275
72	0xbc9373bf	-0.017999528
73	0x3d2d82a2	0.04236091
74	0xbd42d368	-0.047564894
75	0x3d1ed924	0.0387813
76	0x3d01f3db	0.0317267
77	0xbd58ccb3	-0.05292959
78	0xbc311642	-0.010808529
79	0x3c4ca312	0.012490051
80	0xbc9b4f85	-0.018958816
81	0xbc243647	-0.010022706
82	0x3ddab561	0.106791265
83	0xbd08c576	-0.03339144
84	0x3d1ee3ef	0.038791593
85	0x3d83e2d4	0.064397484
86	0x3d144d89	0.036206756
87	0x3db7ea27	0.08980208
88	0xbcfe30a0	-0.031029046
89	0x3d910f28	0.07082969
90	0xbc88c61d	-0.01669603
91	0xbb9f4ad5	-0.0048612156
92	0x3d38281a	0.04496012
93	0x3cf3d64b	0.029765269
94	0x3c09c485	0.00840867
95	0xbc86b46d	-0.016443456
96	0xbd042d6d	-0.032269884
97	0xbca48b4e	-0.020085957
98	0x3d8c1723	0.068403505
99	0xbcf976ed	-0.030452216
100	0xbc764b7c	-0.015032645
101	0xbd20c5fc	-0.039251313
102	0xbbe25e9a	-0.00690825
103	0xba982aac	-0.0011609397
104	0xbcb8ead4	-0.022572912
105	0xbd333f88	-0.04376176
106	0xbd159ac1	-0.036524538
107	0xbc964125	-0.01834161
108	0xbc6249e0	-0.0138115585
109	0x3ce146b0	0.027499527
110	0xbd2c532c	-0.042071506
111	0xbc7640d0	-0.015030101
112	0xbba2a973	-0.0049640476
113	0xbd910b96	-0.07082288
114	0x3c86abf8	0.016439423
115	0xbd1b7690	-0.037954867
116	0x3c7f6d80	0.015590072
117	0x3b072c80	0.002062589
118	0xbd55bf28	-0.052184254
119	0xbbed82f5	-0.0072482773
120	0x3d0d45f4	0.03449054
121	0x3c84b1d5	0.016198078
122	0xbd49cffa	-0.049270608
123	0xbd0830f7	-0.03324982
124	0x3d961a89	0.0732928
125	0x3d0bb1ce	0.034105115
126	0xbcd4a1d2	-0.025956068
127	0xbc93ecc1	-0.018057229
128	0xbabf7cc2	-0.0014609324
129	0x3d23f3cd	0.04002743
130	0x3d17b195	0.03703459
131	0x3d33ffdb	0.043945175
132	0x3c4a91a0	0.012363821
133	0x3cbd1b9d	0.023084456
134	0x3d176e95	0.036970694
135	0xbcc737a6	-0.024318527
136	0xbb3550f5	-0.0027666662
137	0x3c193cc4	0.009352867
138	0xbdb2c99f	-0.087298624
139	0xbd32ac91	-0.043621603
140	0xbc2c9c2d	-0.010535282
141	0x3d116757	0.035498943
142	0x3cd8f9fa	0.026486386
143	0xbd2d95e6	-0.042379282
144	0x3d15b83f	0.036552664
145	0xbce2f0c2	-0.027702693
146	0x3cf51fbf	0.029922364
147	0xbdb99fe4	-0.090637
148	0x3cf69862	0.030101959
149	0x3e0ae5ea	0.13564268
150	0x38d275ac	0.000100354984
151	0xbcf73e5e	-0.030181106
152	0x3d173d82	0.036923893
153	0x3c4c34a8	0.012463726
154	0xbc04bf4f	-0.008102252
155	0x3c802ae5	0.015645454
156	0x3d570e1e	0.052503698
157	0xbb61445e	-0.0034373025
158	0xbc3f1f2f	-0.01166515
159	0x3cb6c434	0.022310354
160	0xbc5f2c23	-0.013621363
161	0xbd2f1b89	-0.04275087
162	0xb98bf97b	-0.00026698023
163	0xbc66e95c	-0.014093723
164	0x3c54e7e3	0.012994739
165	0xbd14ca4f	-0.03632575
166	0xbc9cf8c7	-0.019161595
167	0x3d93aea3	0.07211044
168	0x3c9736c9	0.01845874
169	0x3c56caee	0.013109906
170	0xbc9f8631	-0.019473167
171	0x3cefe80b	0.029285451
172	0xba59f38c	-0.00083141844
173	0xbcca739a	-0.024713326
174	0xbd2ce86b	-0.04221384
175	0x3b02c680	0.001995474
176	0xbd7fc333	-0.062442016
177	0xba67f1c5	-0.0008847977
178	0xbd36e016	-0.0446473
179	0xbc1ac675	-0.00944673
180	0xbbbb69cf	-0.0057194005
181	0x3d8f782f	0.07005345
182	0x3dbd2dd5	0.092372574
183	0xbc486ddc	-0.012233224
184	0xbd1f71d6	-0.03892692
185	0xbc88f0f9	-0.016716467
186	0xbcf4f116	-0.029900115
187	0x3d418e62	0.047254927
188	0xbc8c8028	-0.017150953
189	0xbce901a2	-0.028443161
190	0xbce26c0c	-0.027639411
191	0x3dd712b8	0.10501617
192	0x3b4715c2	0.003037796
193	0xbd97e5d9	-0.07416887
194	0x39255ab1	0.00015769411
195	0x3c758430	0.014985129
196	0xbc968140	-0.018372178
197	0xbd016811	-0.031593386
198	0x3d8c7975	0.068591036
199	0x3d57c27e	0.052675717
200	0x3d84005b	0.0644538
201	0x3d055d8b	0.032559913
202	0x3d31ef08	0.04344085
203	0x3cfa310a	0.030540962
204	0x3ca0b03b	0.019615283
205	0x3d014c77	0.031567063
206	0x3cd0d057	0.02548997
207	0x3d3d4b2b	0.046214264
208	0x3d143dc0	0.036191702
209	0x3da2bc60	0.07946086
210	0xbc4f086c	-0.012636285
211	0x3cab77dc	0.020931177
212	0xbd31a550	-0.043370545
213	0x3d76796c	0.06017439
214	0x3d31c750	0.04340297
215	0xbcc758ff	-0.024334429
216	0xbd3bb0a3	-0.04582275
217	0x3c8549c1	0.01627052
218	0xbc88b92f	-0.016689865
219	0x3d1039db	0.035211425
220	0xbc6f46da	-0.014604295
221	0x3dc88d60	0.0979259
222	0xbd31803a	-0.043335177
223	0xbcda0251	-0.026612433
224	0xbd0d243b	-0.03445838
225	0x3a1ebbf3	0.00060552283
226	0x3cde1372	0.027108882
227	0x3bf8d4b4	0.0075937156
228	0xbc9f957c	-0.01948046
229	0xbd1e3602	-0.038625725
230	0xbd32a6ce	-0.04361611
231	0x3d612399	0.05496559
232	0x3d10442f	0.035221275
233	0x3ce8bf70	0.028411597
234	0x3ca073d8	0.019586489
235	0x3d1c845b	0.03821216
236	0x3cfaa97b	0.030598393
237	0x3aa24d49	0.0012382652
238	0x3d0a3fa6	0.033752106
239	0x3d58016d	0.052735735
240	0x3cf0b05e	0.029380973
241	0x3d27606b	0.040863436
242	0xbdb1c832	-0.08680762
243	0xbc7374ac	-0.01485936
244	0x3c6b52c0	0.014362991
245	0x3cc19105	0.023628721
246	0xb86dda4a	-5.67085e-05
247	0x3cdc2ac6	0.026875865
248	0xbcfe20c4	-0.031021483
249	0xbe0f9ac0	-0.14023876
250	0x3d22af28	0.039717823
251	0xbc832d54	-0.016012825
252	0xbccbdb0d	-0.024884725
253	0x3da771e1	0.081760176
254	0xbd16cd61	-0.03681696
255	0xbad528ad	-0.0016262733

fc2.weight f4 [128, 256]
0	0xbd8207ff	-0.063491814
1	0xbc7eaf90	-0.015544787
2	0xbc6ee11f	-0.01458004
3	0x3d01809c	0.031616792
4	0x3c104e2c	0.0088077
5	0xbcf4ae98	-0.029868409
6	0x3d281c95	0.041042883
7	0x3d40ecf2	0.04710097
8	0xbc444746	-0.011979884
9	0x3cd9fa4f	0.026608614
10	0xbdb86b96	-0.090048954
11	0x3d24a3c4	0.04019524
12	0x3cd63036	0.026146036
13	0xbd7e4b73	-0.062083673
14	0xbd8c2455	-0.06842867
15	0xbda03530	-0.07822645
16	0xbd70b5cc	-0.058767125
17	0x3d77ae7e	0.060469143
18	0x3dab61d1	0.083682664
19	0xbc63a75f	-0.013894885
20	0x3d7ed09e	0.06221067
21	0x3c5f74eb	0.013638715
22	0x3ce08a66	0.027409744
23	0x3cf61530	0.0300394
24	0xbd98eaae	-0.074666366
25	0xbd1cf411	-0.038318697
26	0x3d8b51ef	0.06802737
27	0x3da4eadf	0.080526106
28	0x3cddcbad	0.02707466
29	0xbd011cd8	-0.03152165
30	0xb94e11cc	-0.00019652321
31	0x3cdb93b6	0.026803833
32	0xbd409583	-0.047017585
33	0x3d2cf359	0.042224262
34	0x3b6dd8c8	0.0036292542
35	0x3c0d2c3f	0.008616506
36	0xbd1bc469	-0.03802911
37	0xbd843873	-0.06456079
38	0xbcc888a0	-0.02447921
39	0xbd1a31e9	-0.037645254
40	0x3ce16de7	0.027518226
41	0x3d1dab3a	0.038493372
42	0x3caa14ce	0.020761874
43	0x3c111b2b	0.008856575
44	0x3c699342	0.0142563
45	0x3d8de7b1	0.06928957
46	0x3d74f1c2	0.05980087
47	0x3d6843c4	0.05670525
48	0x3d7883e8	0.06067267
49	0xbc38cbf6	-0.011279097
50	0x3dc50514	0.09620109
51	0xbc80da69	-0.015729146
52	0xbd8555ab	-0.065104805
53	0xbd0d9917	-0.034569826
54	0xbd7de382	-0.061984546
55	0xbcef896b	-0.02924033
56	0xbd6aa349	-0.057284627
57	0x3cdc7744	0.026912339
58	0x3b060794	0.0020451294
59	0xbce6be24	-0.028166838
60	0xbd6a4cf4	-0.057202294
61	0xbb1ec517	-0.0024226361
62	0xbacc123b	-0.0015569398
63	0xbd177a79	-0.036982033
64	0x3d4dd3f9	0.05025098
65	0x3d87ca18	0.06630343
66	0xbd46d604	-0.048543945
67	0x3ca30990	0.01990202
68	0x3c84907a	0.016182173
69	0xbd4c0528	-0.049809605
70	0xbd13ba64	-0.036066428
71	0xbd2691a7	-0.04066625
72	0xbd0ff30d	-0.0351439
73	0xbbc4335a	-0.005987567
74	0xbc15f941	-0.009153665
75	0x3d12582e	0.035728626
76	0x3c4ec242	0.012619557
77	0x3d941c11	0.07231916
78	0xbd1474ab	-0.036244076
79	0xbbc1c6ef	-0.0059136073
80	0x3d788383	0.060672294
81	0xbdce7729	-0.10081322
82	0x39915c53	0.00027725342
83	0xbda04531	-0.07825697
84	0x3c19ff04	0.009399179
85	0xbd9052cd	-0.07047043
86	0x3b94e474	0.0045438353
87	0x3d33b8cc	0.043877408
88	0x3d7dbc0e	0.06194692
89	0xbd32c7e3	-0.043647658
90	0xbd620e49	-0.055189405
91	0x3d67044e	0.05640059
92	0x3d3622d6	0.044466816
93	0xbd04a330	-0.03238219
94	0x3d006d41	0.031354193
95	0x3d4907b3	0.04907961
96	0x3d05b4f9	0.032643292
97	0xbd4007a7	-0.046882298
98	0xbd13fd3c	-0.036130175
99	0x3d0a5e1b	0.033781152
100	0x3cae0956	0.021244686
101	0xbc48f2d4	-0.012264926
102	0x3ce0f281	0.027459385
103	0xbd584bdd	-0.052806724
104	0xbd473c11	-0.04864127
105	0xbc1c282f	-0.009531065
106	0x3cabb48c	0.020960115
107	0x3bb48f57	0.0055102515
108	0x3b4e4481	0.0031473937
109	0xbd9b199f	-0.07573246
110	0x3c2fb618	0.010724567
111	0x3cf57295	0.029961864
112	0xbd19ca2d	-0.037546325
113	0x3dd16653	0.10224595
114	0x3d0c028a	0.03418211
115	0x3dcf9593	0.10135951
116	0x3defedce	0.117152795
117	0xbbb5409c	-0.0055313837
118	0xbc7a3104	-0.015270475
119	0x3ce53804	0.027980812
120	0xbd2fac99	-0.04288921
121	0xbd5a63d6	-0.053317867
122	0x3d34bbbe	0.044124357
123	0x3c2de9e2	0.010614844
124	0xbcc7f633	-0.02440939
125	0xbcd9f2b8	-0.026604995
126	0x3c286cfa	0.010279888
127	0x3ca6a721	0.020343365
128	0xbc807573	-0.015681004
129	0xbd8c8619	-0.068615146
130	0x3dd44cd5	0.10366217
131	0x3d29d532	0.041463085
132	0xbcb7ebd9	-0.022451328
133	0xbd230d85	-0.039807815
134	0xbd941d99	-0.07232208
135	0x3d2c4820	0.04206097
136	0xba9cd1ba	-0.0011964359
137	0xbcb59595	-0.022166053
138	0x3c9194b0	0.017771095
139	0x3dd96c54	0.10616365
140	0x3cc8c2df	0.024506984
141	0xbd31ba7b	-0.043390732
142	0x3c14b8c7	0.0090772575
143	0xbc635103	-0.013874295
144	0xbd345ca9	-0.04403368
145	0xbb11d11f	-0.002224989
146	0xbc4dd8eb	-0.012563924
147	0x3dea9bcf	0.114554994
148	0x3db9884b	0.09059199
149	0x3d5f35b0	0.05449456
150	0x3d5ec340	0.054385424
151	0x3c26e1da	0.010185683
152	0x3c6f2cc0	0.014598072
153	0xbda7b9ea	-0.08189757
154	0x3c9c0132	0.019043539
155	0xbdb2c94d	-0.08729801
156	0x3d8f5884	0.06999305
157	0x3d20edc2	0.039289244
158	0x3dc7f276	0.09763043
159	0xbcd2e69b	-0.025744727
160	0xbd74d83a	-0.059776522
161	0xbcfc0d0f	-0.030767946
162	0x3d3d87f0	0.04627222
163	0x3ba1321b	0.004919303
164	0xbd16de89	-0.03683332
165	0x3bb9556f	0.0056559364
166	0xbc86a538	-0.016436204
167	0xbbc151ad	-0.005899629
168	0x3d557efb	0.05212305
169	0x3cdf57dc	0.027263574
170	0xbcc399a8	-0.02387698
171	0xbcd5b70a	-0.026088256
172	0x3b44dba0	0.0030038133
173	0xbd7c7046	-0.06163051
174	0xbd293044	-0.041305795
175	0x3cf16b3e	0.029470082
176	0x3d8a7b61	0.06761814
177	0x3d2477c7	0.04015329
178	0x3b709042	0.0036707078
179	0xbd70fd91	-0.05883557
180	0xbc96f079	-0.018425213
181	0x3c9d9f0c	0.019240879
182	0xbceb97f4	-0.02875898
183	0xbcde0b26	-0.027104925
184	0xbd354184	-0.044251934
185	0xbd610105	-0.054932613
186	0xbd97bf08	-0.07409483
187	0xbd8f080b	-0.06983956
188	0xbda34a00	-0.07973099
189	0xbc2f877a	-0.0107134525
190	0xbdedc8ee	-0.1161059
191	0x3cddac3a	0.027059663
192	0xbdd2422c	-0.102665275
193	0xbc635d28	-0.013877191
194	0xbdb1edcf	-0.086879365
195	0x3d636098	0.05551204
196	0xbd451c6b	-0.048122805
197	0xbce6dd75	-0.02818177
198	0xbc67e009	-0.014152535
199	0xbd59a0f0	-0.053131998
200	0xbbaa1580	-0.0051905513
201	0x3d523b3f	0.051326033
202	0xbd516643	-0.051122915
203	0xba95ca13	-0.0011428021
204	0x3bec3a30	0.007209085
205	0xbbea2d2e	-0.007146499
206	0xbd51e190	-0.051240504
207	0xbd63469b	-0.055487256
208	0x3d3333ab	0.043750446
209	0xbc326af5	-0.010889758
210	0xbcff5f70	-0.031173438
211	0xbd45b269	-0.04826585
212	0xbd5f48c8	-0.05451277
213	0xbb1256eb	-0.002232964
214	0xbdf16aed	-0.117879726
215	0x3d4df0a1	0.05027831
216	0x3b4441fa	0.0029946552
217	0x3d08b560	0.033376098
218	0xbd79607d	-0.060883034
219	0x3d541a60	0.051782966
220	0xbda3767a	-0.07981582
221	0xbd519127	-0.05116382
222	0x3df63f70	0.120238185
223	0xbbc06581	-0.005871475
224	0x3cadfac4	0.021237738
225	0x3b1dd51e	0.0024083327
226	0x3cfba894	0.030720033
227	0xbd575df2	-0.052579828
228	0xbcc27e9f	-0.023742018
229	0x3ddb9404	0.10721591
230	0xbd003505	-0.031300563
231	0xbda5fe9c	-0.081052035
232	0xbd84a4f7	-0.06476777
233	0x3db02668	0.086010754
234	0xbd0473d8	-0.03233704
235	0xbd5a5fce	-0.053314023
236	0xbc2206bc	-0.009889301
237	0x3dfc367b	0.12315079
238	0x3c286eb0	0.010280296
239	0x3d9547b5	0.07289068
240	0xbca1bd9e	-0.019743737
241	0xbd4f2cdb	-0.050579887
242	0x3dfbb1ac	0.122897476
243	0xbc7f7d22	-0.015593799
244	0xbdc5d5b0	-0.09659898
245	0x3d95522c	0.07291064
246	0xbcec9486	-0.028879415
247	0x3ce8124b	0.028329035
248	0xbd3fea30	-0.046854198
249	0x3d33af8c	0.043868586
250	0xbd4d89e2	-0.050180323
251	0xbce79f61	-0.02827424
252	0xbd8909c6	-0.06691317
253	0xbcbeaaf0	-0.023274869
254	0x3d5b4833	0.05353565
255	0xbda6a2e1	-0.081365354

fc2.bias f4 [128]
0	0xbd940253	-0.07227006
1	0x3cb97827	0.0226403
2	0xbd2b77c8	-0.04186228
3	0x3c765eeb	0.015037279
4	0xbce5fac6	-0.02807368
5	0xbd744b5d	-0.059642185
6	0x3d0e26ea	0.03470508
7	0x3d2b554d	0.041829396
8	0x3e1cef1a	0.15325585
9	0x3e021e44	0.12706858
10	0xbe3f9c32	-0.18711928
11	0xbd7ec639	-0.06220076
12	0x3c9bf9b8	0.019039974
13	0x3e15028a	0.1455175
14	0x3d02423f	0.03180146
15	0x3dcf2945	0.101152934
16	0x3e49045a	0.19630566
17	0x3d0d5160	0.034501433
18	0x3e45aca6	0.19304141
19	0x3bf0d7cc	0.0073499437
20	0x3d9a734a	0.07541521
21	0x3cf1826f	0.02948114
22	0x3d064605	0.03278162
23	0x3ccb79e9	0.024838405
24	0xbd726535	-0.05917855
25	0x3d2c130b	0.04201035
26	0xb91b341f	-0.00014801369
27	0x3cee0f53	0.029060042
28	0x3a8ad3c8	0.001059168
29	0x3e1e4da2	0.15459302
30	0xbc5ecce8	-0.013598658
31	0xba89680e	-0.0010483281
32	0x3ba97095	0.0051708915
33	0x3d5b1032	0.053482242
34	0xbd85048d	-0.064950086
35	0x3d0bd479	0.034138177
36	0x3e2f1678	0.17098415
37	0xbcef443e	-0.029207345
38	0xbd1382cb	-0.036013406
39	0xbdd95296	-0.10611455
40	0xbccc8a3a	-0.024968255
41	0x3de6ede7	0.11275845
42	0xbd967f31	-0.073484786
43	0xbcffb382	-0.031213526
44	0x3d3f3bb7	0.046687808
45	0xbcf74da3	-0.030188387
46	0xbbb7e0f9	-0.0056115356
47	0xbd6e1c03	-0.058132183
48	0x3d645159	0.05574164
49	0x3e10ed14	0.14152938
50	0x3d5d037f	0.053958412
51	0xbcedfbf3	-0.029050803
52	0xbda359c3	-0.07976105
53	0x3cde9a9e	0.027173337
54	0xbd8ed320	-0.06973863
55	0x3da05b7d	0.0782995
56	0xbd52386d	-0.051323343
57	0x3d140df0	0.036146104
58	0xbc6d1195	-0.014469524
59	0x3cc5b1fc	0.024132721
60	0x3cbd9328	0.023141459
61	0xbe19a86c	-0.15005654
62	0xbc4ae83c	-0.012384471
63	0xbc2d7dbc	-0.010589059
64	0xbd2f432b	-0.042788666
65	0xbc6a3b6e	-0.014296396
66	0xbdb93ce9	-0.09044821
67	0xbd5da17c	-0.05410908
68	0x3d734be1	0.059398536
69	0x3d6de645	0.05808093
70	0x3e0e0399	0.1386856
71	0xbd8c51bc	-0.06851527
72	0x3b7bcb69	0.0038420802
73	0xbc4f7ac4	-0.012663547
74	0xbcf4be21	-0.029875817
75	0xbda8edb1	-0.08248461
76	0x3c77b591	0.015118972
77	0x3e587c7f	0.21141241
78	0xbd28ef11	-0.041243616
79	0xbd94ac68	-0.072594464
80	0x3cf9ab61	0.030477228
81	0x3c318f79	0.010837429
82	0x3d3ea548	0.046544343
83	0x3d9055e2	0.07047631
84	0x3daae72a	0.08344872
85	0xbcd041bf	-0.025421975
86	0xbd56b5ba	-0.0524194
87	0x3e03062d	0.12795325
88	0x3ca0d38b	0.019632122
89	0xbd8e7640	-0.06956148
90	0x3d02e363	0.031955134
91	0x3dede6aa	0.11616261
92	0x3dd8bb83	0.1058264
93	0xbc9f4461	-0.019441785
94	0x3e012383	0.12611203
95	0xbc0ac529	-0.008469858
96	0x3cbd6b99	0.023122596
97	0xbdc77fef	-0.09741198
98	0x3a5b93d6	0.0008376216
99	0x3d395792	0.04524953
100	0xbc619b7c	-0.0137699805
101	0x3d390ed2	0.04518015
102	0xbdb06a46	-0.0861402
103	0x3d282285	0.041048545
104	0xbd4e9119	-0.050431345
105	0x3e1055ae	0.14095184
106	0xbda8ac4a	-0.082359865
107	0xbd70709d	-0.058701146
108	0x3d32a068	0.043610007
109	0x3e0ff102	0.14056781
110	0xbd2418de	-0.040062778
111	0x3d2d4a3e	0.04230713
112	0xbcf1f3c6	-0.029535186
113	0xbd3d704c	-0.046249673
114	0x3db59b74	0.08867541
115	0x3ce8aeee	0.028403725
116	0xbc247433	-0.01003747
117	0xbdaeb049	-0.085297175
118	0xba96160b	-0.0011450661
119	0xbd16c11c	-0.036805257
120	0x3b0c9afd	0.0021454685
121	0x3cef674d	0.029224062
122	0xbbf8b95b	-0.0075904555
123	0x3d141021	0.036148194
124	0xbcae79f7	-0.021298392
125	0xbd9755ef	-0.073894374
126	0xbc659066	-0.014011478
127	0x3d944f88	0.07241732

fc3.weight f4 [100, 128]
0	0xbdb910e9	-0.090364285
1	0xbda56d73	-0.080775164
2	0xbda719f0	-0.08159244
3	0xbd65e09d	-0.05612241
4	0x3d2b6c24	0.041851178
5	0x3cd81854	0.026378788
6	0xbd1394a7	-0.036030438
7	0x3e09f658	0.13472879
8	0x3ddcd7d0	0.107833505
9	0xbd5c12bf	-0.053728815
10	0xbd30db51	-0.043177906
11	0xbd7b7485	-0.06139042
12	0xbda6e89b	-0.08149835
13	0xbc9033fd	-0.017602915
14	0x3c06529f	0.008198409
15	0x3d0b344b	0.033985417
16	0xbc9544f2	-0.018221352
17	0x3c605eb8	0.013694458
18	0xbd3c2523	-0.045933854
19	0xbd551ff4	-0.052032426
20	0x3d381eac	0.044951126
21	0x3c26ecbe	0.01018828
22	0xbcb25141	-0.02176726
23	0xbd66264d	-0.05618887
24	0x3c2599ef	0.010107501
25	0x3d865911	0.06559957
26	0xbd7faf35	-0.06242295
27	0x3ccff2cb	0.025384327
28	0x3d76700b	0.060165446
29	0xbda44677	-0.080212526
30	0xbc93ba0f	-0.018033056
31	0xbe128d8c	-0.14311808
32	0x3d0c7aa2	0.03429664
33	0xbc036188	-0.008018859
34	0x3cbf4fb3	0.023353433
35	0x3c86c72c	0.016452394
36	0x3df360b0	0.11883676
37	0x3c935204	0.017983444
38	0xbd0d76b5	-0.034537036
39	0xbd8fa5b4	-0.07014027
40	0xbd21d8f0	-0.03951353
41	0xbd2b483a	-0.041816927
42	0x3bcd661d	0.0062682764
43	0xbcdff4fd	-0.0273385
44	0xbde301cd	-0.11084328
45	0xbe0cbbba	-0.13743487
46	0x3ca7dbc1	0.020490529
47	0x3a9f4f36	0.0012154344
48	0x3de1002d	0.10986362
49	0xbd66074e	-0.05615931
50	0x3d675254	0.056475
51	0xbcddbbc0	-0.027067065
52	0xbc93c765	-0.018039415
53	0x3d1f255f	0.038854
54	0xbc66e4ac	-0.014092606
55	0xbcfd2059	-0.030899214
56	0x3d5eb581	0.054372314
57	0x3df009fe	0.11720656
58	0xbc3a41e4	-0.011368249
59	0xbdd71fde	-0.10504125
60	0x3d9fe9ab	0.078082405
61	0x3d2acc66	0.041698836
62	0x3cb5bccc	0.022184752
63	0xbd19dd6f	-0.03756469
64	0x3d27580e	0.04085546
65	0x3cd05bdb	0.025434425
66	0xbd2b7d7d	-0.04186772
67	0x3cf866c3	0.030322438
68	0xbd984c2d	-0.074364044
69	0xbccf7793	-0.025325572
70	0xbdfb6d2e	-0.12276684
71	0x3e49f934	0.1972397
72	0x3dd5ffad	0.10449157
73	0x3cbe699d	0.02324372
74	0xbd9bed0c	-0.076135725
75	0x3d8cb92f	0.068712585
76	0xbbb82ae8	-0.005620349
77	0x3ddded8f	0.10836326
78	0xbc94af40	-0.018149972
79	0x3d1a1e58	0.037626594
80	0xbd659c0c	-0.05605702
81	0xbe0f8a72	-0.14017656
82	0xbd46045f	-0.048344012
83	0x3d8ae8d8	0.06782693
84	0x3c359662	0.011083217
85	0x3d969777	0.073531084
86	0x3dbedec3	0.09319832
87	0x3d9ce85f	0.07661509
88	0x3c8b91c0	0.017037272
89	0x3c585ccd	0.013205719
90	0x3d600bf1	0.05469889
91	0x3d21cf36	0.039504252
92	0x3d05bbb5	0.032649714
93	0x3a239018	0.0006239428
94	0xbc84ecbf	-0.01622617
95	0x3c3344e7	0.010941721
96	0xbe1c926f	-0.15290235
97	0x3d182fc4	0.037154928
98	0x3d832f86	0.06405549
99	0xbd9c3952	-0.076281205
100	0xbd4e8bd8	-0.050426334
101	0x3ddcd0fb	0.10782047
102	0xbd8dd1e5	-0.069248
103	0xbd22df9c	-0.03976403
104	0x3cffe8e3	0.031238979
105	0x3e27d673	0.163904
106	0xbcfd0326	-0.03088529
107	0x3dab704b	0.083710276
108	0xbc903f00	-0.017608166
109	0x3c5cc649	0.013475009
110	0x3d869e19	0.065731235
111	0x3d466fa6	0.04844632
112	0xbda25cb9	-0.07927842
113	0xbd52be72	-0.051451154
114	0x3e05ac16	0.13053927
115	0xbd842540	-0.064524174
116	0x3c72fd86	0.0148309525
117	0x3d4dfa9a	0.05028782
118	0x3c9075af	0.01763424
119	0x3cb7f4d9	0.02245562
120	0xbce36414	-0.027757682
121	0x3d5c67d0	0.05380994
122	0xbd94d65a	-0.07267447
123	0x3d671125	0.056412835
124	0x3d1c8c2e	0.038219623
125	0x3d4d0f9c	0.050063714
126	0x3b917386	0.0044388203
127	0x3d1cc43c	0.03827308
128	0x3d79c88d	0.060982276
129	0xbd81e26f	-0.06342017
130	0x3dc9309d	0.098237254
131	0x3c279477	0.010228268
132	0x3cb3c10c	0.021942638
133	0xbd2ce561	-0.04221094
134	0xbd5899f3	-0.052881192
135	0xbcb91cfa	-0.022596825
136	0x3d6b569c	0.057455644
137	0x3c0460db	0.008079733
138	0xbda051d2	-0.07828106
139	0x3dbb875d	0.09156678
140	0xbd115481	-0.03548098
141	0xbcd2c666	-0.02572937
142	0xbd9be5e7	-0.0761221
143	0xbcf24528	-0.029573992
144	0xbd0d34d2	-0.0344742
145	0xbd9eab66	-0.077475354
146	0xbdaf96d1	-0.08573688
147	0xbca1f8fa	-0.019772042
148	0xbd63c84d	-0.055610944
149	0x3db7cf5d	0.08975098
150	0xbd054472	-0.032535978
151	0xbc5e5663	-0.013570401
152	0x3d9add48	0.07561737
153	0xbc60ecf1	-0.013728366
154	0xbd302d69	-0.043012056
155	0x3cc3e391	0.023912223
156	0xbceccc74	-0.028906085
157	0xbd954da9	-0.07290203
158	0xbd99d404	-0.07511142
159	0x3d88731c	0.0666258
160	0xbcb1d0c0	-0.021705985
161	0x3d09c8db	0.033638816
162	0xbc2c0db4	-0.010501314
163	0xbdbe0e29	-0.092800446
164	0x3dc3f913	0.095689915
165	0x3d641472	0.05568356
166	0xbd3f8dbe	-0.046766035
167	0x3ddb913f	0.10721063
168	0xbdc4401f	-0.09582543
169	0x3e061048	0.13092148
170	0xbd592ed0	-0.05302316
171	0x3d2e380c	0.04253392
172	0xbd186aee	-0.03721135
173	0x3d78d3ef	0.06074899
174	0xbdbb4929	-0.091448136
175	0x3d1c97d0	0.038230717
176	0xbd53300a	-0.051559485
177	0x3db118ad	0.08647285
178	0xbcec6813	-0.02885822
179	0x3dec5b28	0.11540824
180	0x3ccafbd7	0.02477829
181	0x3bdad9c9	0.006678794
182	0x3dce69fa	0.10078807
183	0x3d1bf686	0.0380769
184	0x3da6818c	0.08130178
185	0x3e0fde33	0.14049606
186	0x3d8103fb	0.06299587
187	0x3daa6b71	0.08321274
188	0x3b8f26a8	0.004368622
189	0x3d1e489f	0.038643476
190	0xbd44fa6c	-0.048090383
191	0x3db27f76	0.087157175
192	0x3d1b5eeb	0.037932318
193	0x3ce148eb	0.02750059
194	0x3b4b8400	0.003105402
195	0x3d9125d6	0.07087295
196	0xba66b6e0	-0.0008801054
197	0xbd9996ed	-0.0749949
198	0xbd9ccc5f	-0.07656168
199	0xbde06add	-0.109578826
200	0x3e0044e7	0.12526284
201	0xbd8a9ed1	-0.06768573
202	0x3c0f3dc3	0.0087427525
203	0xbbef3c46	-0.0073008863
204	0xbd080294	-0.033205584
205	0x3d4e3e90	0.050352633
206	0xbd54354d	-0.051808644
207	0xbd4065c2	-0.046972044
208	0xbccbb533	-0.024866676
209	0x3bc7cb8e	0.0060972637
210	0xbc9c7511	-0.01909879
211	0xbc9975e4	-0.018732972
212	0x3d624af0	0.055247247
213	0x3d4b66f4	0.04965873
214	0x3d7e76f7	0.062125172
215	0x3da389a0	0.07985234
216	0x3cfac5e0	0.030611932
217	0xbd05cf2e	-0.032668285
218	0x3cd64335	0.026155094
219	0xbcf6708f	-0.030082969
220	0xbd6d1efd	-0.05789088
221	0x3d2c2aeb	0.042033117
222	0xbd48154b	-0.04884843
223	0x3dc1b5de	0.094585165
224	0xbcaa01f4	-0.020752884
225	0xbd9ac5d6	-0.075572655
226	0xbce5ffaf	-0.028076021
227	0x3d40954b	0.047017377
228	0x3e125409	0.1428987
229	0xbdff32f0	-0.124608874
230	0x3c7869a6	0.015161907
231	0xbaa89ac5	-0.0012863508
232	0xbd28e7f6	-0.04123684
233	0xbd6f4079	-0.058411095
234	0xbc84628a	-0.016160268
235	0xbd323783	-0.04350997
236	0xbd8a55e4	-0.067546636
237	0x3d3f0ba9	0.04664198
238	0xbcf42ea1	-0.02980739
239	0x3df4a7e0	0.11946082
240	0xbc9f6abb	-0.019460073
241	0xbc907e89	-0.017638462
242	0xbdb5c118	-0.0887472
243	0xbd411cdd	-0.047146667
244	0xbb7ae4f6	-0.0038283444
245	0x3c971624	0.018443175
246	0x3dd7eddb	0.10543414
247	0xbca353f3	-0.019937491
248	0xbbcc3b92	-0.0062326873
249	0x3cc2f768	0.023799613
250	0xbc1908de	-0.009340493
251	0xbd3d599f	-0.046228047
252	0xbc6cb911	-0.01444842
253	0x3dc3904e	0.09549008
254	0x3d7d2cea	0.06181041
255	0xbc2dbd95	-0.010604282

fc3.bias f4 [100]
0	0xbcfc3b75	-0.03079007
1	0x3cd82cd1	0.026388558
2	0x3d753162	0.05986155
3	0xbd3ebdd4	-0.046567753
4	0xbe4212dd	-0.18952508
5	0xbda41f46	-0.080137774
6	0xbda3c935	-0.079973616
7	0x3dce5d3a	0.10076375
8	0xbd4c0549	-0.049809728
9	0x3dd9a803	0.10627749
10	0xbd6f58ba	-0.058434226
11	0xbdb9744e	-0.090553865
12	0x3addea0c	0.0016930713
13	0xbd55a348	-0.05215767
14	0xbe44598b	-0.19174783
15	0x3d8d0b5e	0.06886934
16	0x3e0effc4	0.13964754
17	0xbda74f03	-0.08169367
18	0x3d16dc0d	0.03683095
19	0xbd83c65f	-0.06434321
20	0xbd582b2a	-0.05277554
21	0xba835436	-0.0010019604
22	0xbe1acc2e	-0.15116951
23	0xbe66fb42	-0.22556785
24	0x3d2dd4a9	0.042439137
25	0xbd9d0e03	-0.07668688
26	0x3d9329e7	0.071857266
27	0x3d3a8daf	0.045545276
28	0xbdad3c8a	-0.084588125
29	0x3e26cf75	0.16290076
30	0x3e0222d0	0.12708592
31	0xbe061ddf	-0.13097332
32	0xbc9aabfa	-0.018880833
33	0xbcee55f7	-0.029093726
34	0xbd9b9157	-0.07596081
35	0x3d20bac3	0.03924061
36	0xbe2f6232	-0.17127302
37	0xbdc6d3b5	-0.09708349
38	0xbb3d09e3	-0.0028845004
39	0x3bac123b	0.0052511967
40	0xbd97b058	-0.07406682
41	0x3d67553f	0.05647778
42	0x3d8cd9dc	0.06877491
43	0x3c83b1e3	0.016076034
44	0x3e029247	0.12751113
45	0x3d93ea88	0.07222468
46	0x3d023876	0.031792127
47	0x3b850813	0.0040598004
48	0xbca75ee7	-0.020430995
49	0xbda4b71d	-0.080427386
50	0xba909170	-0.0011029672
51	0xbdcb3752	-0.09922661
52	0x3db52c43	0.08846333
53	0xbc54d947	-0.012991256
54	0x3d77b128	0.060471684
55	0x3d65f8d2	0.056145497
56	0xbbdcaef4	-0.006734723
57	0x3d38ed1c	0.045148
58	0x3ca4b47e	0.020105597
59	0x3d7120b7	0.05886909
60	0xbd216656	-0.039404236
61	0xbd3055b8	-0.043050498
62	0xbbc35a70	-0.0059617087
63	0x3c982218	0.018570945
64	0x3d267403	0.04063798
65	0xbdc44415	-0.09583298
66	0xbe409fd7	-0.18810974
67	0xbc6f1f9a	-0.014594937
68	0xbcfca85a	-0.030841995
69	0x3dac6da2	0.08419348
70	0xbd71661c	-0.05893527
71	0x3c86f2cb	0.016473195
72	0xbc654130	-0.013992593
73	0xbd4e2f0b	-0.050337832
74	0xbd14e4bb	-0.036350947
75	0xbc168853	-0.009187776
76	0xbcddc927	-0.027073456
77	0x3d41b582	0.04729224
78	0xbd979041	-0.07400561
79	0xbd5aefdd	-0.053451408
80	0xbcb8ce00	-0.022559166
81	0x3e5baf8b	0.21453683
82	0xbcc536a5	-0.024073908
83	0x3e9f4582	0.31107718
84	0x3c8ef7f8	0.017452225
85	0x3e23be2b	0.15990512
86	0x3e24738b	0.16059701
87	0x3df2dc1c	0.11858389
88	0xbeaa9151	-0.33313993
89	0x3db74b08	0.08949858
90	0x3cec0f90	0.028816015
91	0xbd204b58	-0.039134353
92	0x3e04e0fd	0.12976451
93	0xbe2da6f1	-0.16958214
94	0xbe439db6	-0.1910313
95	0x3e1e1bd4	0.15440303
96	0x3e9f22ac	0.3108114
97	0xb9cddb41	-0.00039264004
98	0xbd83c384	-0.06433776
99	0x3df35c19	0.118828006
